model/va_2d_model.pth (torch, 493078 bytes, 33 tensors)

trunk.0.weight f4 [64, 2]
00000000: 158d 0c3f 3129 023f 80bd 78be 1235 0e3f
00000010: 4b08 50be d942 363d 98c2 d2be 1ff4 c63e
00000020: 00a9 4a3f 2aca 23bf 8c65 273f b08a 993d
00000030: 0082 103f f382 3b3d 1610 a53e 61a6 31be
00000040: f22f 0b3f fe7a 3a3c 9c03 a9be eb90 383e
00000050: f2cd a6be 48d4 a9bd 4014 97be c974 e73e
00000060: 2ae4 0ebf 50e7 a6be 0e76 4cbe 13af d9be
00000070: 6dae 883d fdc9 32bf 3745 403f e841 43bf
00000080: 2e3d 123f f732 313d f819 86be 13f3 b03e
00000090: 90c9 1b3e 7af2 043f 0565 e83d a5c2 83be
000000a0: b648 223e f100 99be 7f53 753e 4ebe 0d3f
000000b0: 610f e03e 4c13 c3be cc65 be3e 8dab 85bc
000000c0: 1266 913e eb8c e2be 4c31 33bf a1e0 8bbe
000000d0: 164b 22bf 8601 183f 7ba0 413e 69e3 9f3e
000000e0: e149 613e 531b dabd c851 1a3f b183 08bf
000000f0: c85c 363d 1f1b f7be 4c45 5f3e 025c 79be
00000100: 2be0 6b3e c028 68be 2eb1 1c3f 3d49 fbbe
00000110: 4ceb d7be a3ee d7be 1d31 263f 9108 1c3e
00000120: 7d2d 083f 76f6 35bf 7b8c 33bf 7b9f 0dbf
00000130: 1a8a f3be e4a3 923e 6dac 873e 4cd6 023f
00000140: 49f7 babe 58ce f6be b723 ef3e ca4c 86be
00000150: 81ce e63e b203 7bbe f7b6 b43e dfbc 0bbf
00000160: aa77 bfbe d193 853e 7e45 693e fb47 3cbe
00000170: 11f4 b83e c558 a03e 3945 03bf eb47 c1be
00000180: c74c 2e3f 840b 9fbe 4059 80be 4127 2fbf
00000190: a8c6 bcbe d898 363e 8325 bfbd 3f66 03bf
000001a0: 2ce0 873c 4a4d f7be 8293 19bf 755c c7be
000001b0: 296e 1ebf 1886 e6be a24b 3a3f 670a 753d
000001c0: a721 5f3e 7ad5 28bf 0bc7 edbe 6b03 71be
000001d0: 1673 e23d 6448 1fbf 22fe 9bbe bdbd d8be
000001e0: 396c 003b 3bb7 86be b4b3 48bd 0254 f5be
000001f0: 6880 f8be c936 d3be 8dd9 77be 07e0 0ebf
0.54902774 0.50844103 -0.24291039 0.5554973 -0.20315664 0.044497345 -0.41164088 0.38858125
0.79164124 -0.6398035 0.65389323 0.07497156 0.56448364 0.04577918 0.32238835 -0.17348625
0.54370034 0.011381863 -0.33010566 0.18024032 -0.32579 -0.082924426 -0.29507637 0.45206288
-0.558169 -0.32598352 -0.1996691 -0.42516384 0.06673894 -0.6983946 0.75105613 -0.7627244
0.571246 0.043261494 -0.26191688 0.3456045 0.15213609 0.5193249 0.11347393 -0.2573444
0.1584805 -0.2988353 0.23957632 0.55368507 0.43761733 -0.3810066 0.3718704 -0.016317153
0.28398186 -0.44248137 -0.69997096 -0.27319816 -0.6339582 0.59377325 0.18908875 0.31228188
0.22000839 -0.10649743 0.6028104 -0.53325945 0.044522077 -0.4826288 0.21803778 -0.24351504
0.23034732 -0.22671795 0.61207855 -0.49079314 -0.42171705 -0.42174253 0.6491869 0.15237643
0.5319441 -0.71079195 -0.7013623 -0.5532147 -0.475663 0.28640664 0.26498738 0.5110824
-0.3651679 -0.48204303 0.46706936 -0.2623046 0.45079425 -0.24513128 0.3529584 -0.5458507
-0.37395984 0.26089337 0.22780415 -0.18386833 0.36123708 0.31317726 -0.512775 -0.37750182
0.680859 -0.31063473 -0.25068092 -0.6841927 -0.36870313 0.17831743 -0.09333327 -0.5132789
0.016586386 -0.48301154 -0.59990704 -0.38937727 -0.6188684 -0.4502418 0.72771657 0.059824374
0.21790181 -0.6595074 -0.4644092 -0.2353646 0.11057107 -0.62219834 -0.30467325 -0.4233226
0.0019595756 -0.2631167 -0.048999503 -0.47915655 -0.48535466 -0.41252735 -0.24204083 -0.5581059

trunk.0.bias f4 [64]
00000000: 670e 683f 52c3 ee3d bca1 943f 0c4b 163f
00000010: 80ec d9be 23e5 523f dacb 943d f2f4 0fbe
00000020: 471f e0be 59f6 33bf 8e2a 4f3e 443e 0b3e
00000030: 35f3 8c3e 538e 14bf df64 063f 768f 67bf
00000040: 2463 093e 8d8b ea3e bdb1 273f 154e ae3f
00000050: c7e3 b13f a6c7 b6be 71f8 143f 4965 3cbe
00000060: db95 4e3f be7d 07bf d43d 6c3f e118 87be
00000070: 5490 4c3f 3b3c 443f 114b 6b3e 1ebc c3be
00000080: a0d7 8d3f e10f 113f 6b4a ba3d 8be1 e5be
00000090: 8294 913f c740 d9bd d4db a5be 4a8c 6a3f
000000a0: a26e 213e 200a 19be 8362 3cbe 1c25 793f
000000b0: 8d45 813f df92 513e ab91 a4be 83f4 77be
000000c0: b51d cbbe 601d 813e 6082 b53f 3d6b 2abf
000000d0: df2a 283e b506 bb3e e74b 033e 9565 9a3a
000000e0: 97f6 bc3e 8f41 be3e 4960 873e c678 febd
000000f0: 91bc 3fbe c7ec 9a3d 8dd2 ffbd 9bc6 57be
0.90646976 0.11658348 1.1611857 0.5870826 -0.42563248 0.82380885 0.07265444 -0.14058283
-0.43773863 -0.7029777 0.20231077 0.13597971 0.27529302 -0.5802967 0.5249767 -0.9045328
0.13416725 0.45809594 0.6550558 1.3617579 1.3897637 -0.35699195 0.5819159 -0.18398012
0.8069741 -0.5292624 0.9228184 -0.2638617 0.7990773 0.76654404 0.22977854 -0.3822946
1.1081429 0.56664854 0.09096225 -0.44898638 1.1373446 -0.106080584 -0.32394278 0.91620314
0.1576486 -0.14945269 -0.18396954 0.9732225 1.009935 0.20466183 -0.32142386 -0.24214368
-0.39671102 0.25217724 1.4180412 -0.6656988 0.16422604 0.36528555 0.12821923 0.0011779541
0.36906883 0.37159392 0.26440647 -0.124253795 -0.18724276 0.07564693 -0.12491331 -0.21071856

trunk.2.weight f4 [64, 64]
00000000: 6367 d13d 5fdf 593d 7cc2 e33d 3c27 ee3d
00000010: 494d 82bf 1659 333d 10e8 123d cacc 663d
00000020: ddad 13be 84f2 3cbd cc95 d73d 787a 19bd
00000030: a0b9 cbbb 0858 9abd 429f 9cbd faf9 0640
00000040: a6aa e7bc 60aa 0d3c 8640 af3d 08e0 403f
00000050: a597 d73e ca79 fdbd e023 243e 2397 da3d
00000060: 6949 1fbc d097 04bd 4853 a03e fb96 debd
00000070: 3e4b ae3c 6f97 b53e acce 68bd 2847 cdbc
00000080: 6d60 6d3d f264 843e 58f4 c13d 8223 673c
00000090: cb07 bfbe 18a8 fcbd f6ea cfbd 227b ec3d
000000a0: 6cd0 753d 9104 193e 37d4 b43d 22e1 293e
000000b0: 4418 f43e 1b1b 253d 84bd 10be 0273 efbd
000000c0: 3f90 743d 2860 7bbd 38c5 383f 5054 93bd
000000d0: d098 babc 862e b4bd 4046 a7bd a0ad 373d
000000e0: 202a 18bd 340a 9e3d 0c41 24bd 10cb bbbd
000000f0: 68ac b4bc d030 78bd 60a4 1cbd fcb5 f3bd
00000100: 76b2 063e ef87 b1bd 6087 333e 43e8 773e
00000110: e710 3ebf 4fae 2fbc 807b 133e 30c4 3c3c
00000120: cc96 9a3d d269 f03d a86a 90bc e5c7 01bd
00000130: 90c1 ebbc 8cc1 d5bd d4b5 753d 22e1 0040
00000140: da7d 0b3e ee13 c63d 1a83 273e ab68 213f
00000150: d447 bd3e 9deb 263d 6cea 823e 5e23 afbd
00000160: af4e 073b ea75 99bd c8e3 843e 6839 68bd
00000170: 3da8 873d a087 5d3e 2047 f3bd c80c d23d
00000180: 2b61 8f3e 1d5f 2b3e 003b 69bc ceeb bcbc
00000190: cdb7 aabe fe1f f9bd 044a 3e3d 19de 22bc
000001a0: 9693 a4bd a536 aa3d d03c 013d f1d6 063e
000001b0: d2d9 e73e 4936 db3d 17dd a9bc 0c26 75bd
000001c0: 8e19 17bd 68a8 d63d 9fca 2a3f 64ab 073d
000001d0: 84a5 31bd 506c 263c 3eab ee3d 50d1 e33d
000001e0: 7ad9 ddbd d836 4b3d 9401 f33d dcb2 063d
000001f0: f4a0 ab3d 2063 fc3d 10e8 9cbc 2889 d43c
00000200: d2ed b1bd e005 d3bc e696 bd3d c23c 833d
00000210: 76fe a1bd 5648 cdbd ecf0 aebd 04a4 fcbd
00000220: 228a c5bd 883b fdbc c0c4 ac3d 4066 ab3c
00000230: 0ab7 c2bd 8c5e cdbd 14b5 7e3d 626c bebd
00000240: 402a 7cbc 089c 753d b4f5 6cbd 5050 5fbc
00000250: 6044 32bc e842 f2bc dccc 81bd 4e35 e4bd
00000260: 7cf0 cebd 0414 89bd 2441 f73d b44d 77bd
00000270: 42e9 abbd 3036 f83c cc1c 0d3d d043 8c3d
00000280: 4097 c23d 4e8f 8e3d 02d3 fdbd 60a2 353c
00000290: a212 9b3d 9049 3dbc 00db 96bd 140e f43d
000002a0: 9480 3fbd 90c0 91bd 50cc e6bd 20f6 b63b
000002b0: 58e2 623d f0ac e23c e87e ca3c ae25 c2bd
000002c0: 3c13 efbd 8041 103b f66d e93d 1eb1 933d
000002d0: 4e0d 95bd 88ec 84bc 10b8 bcbd 3400 77bd
000002e0: d871 b93c e066 8b3d 0210 d43d 0009 ebbd
000002f0: 5e2a ab3d 068e b4bd 2cba 3f3d 88a3 d83d
00000300: f731 4b3d 22d0 d03d 54c6 c73d 12e5 463e
00000310: c7dc 2cbf bfab 353d 26ee 51bb e2e9 31bd
00000320: 1530 8b3d 3c23 7b3d 0812 243d 36c1 ccbd
00000330: d2ce cfbd 5083 5d3c dcb1 173d 47ff ff3f
00000340: 515b b0bb edcf cd3d 27c2 3d3d 6498 433f
00000350: 4aeb 0c3f 00e0 0abe a83d 7b3d a67c 6fbd
00000360: 2ade e3bc f483 1f3d 8d10 a33e 02ba b1bd
00000370: fccd 7b3e 672a 9b3e c480 b63d a0dd 77bd
00000380: d8c0 1f3e 549c 5c3e 0291 aabd 4566 c6bd
00000390: 51e3 25be fc44 3bbd 96e9 bfbd b28a 003e
000003a0: 9edd cd3d d1d5 353d 50bf dcbb 3586 a63d
000003b0: da3c 0c3f fffe 113e 4bbb 423d 9873 81bc
000003c0: 4c8d 34bd 5ea6 8e3d 5099 363f eecb a13d
000003d0: 04a2 46bd 80c3 fa3a d05b cabc 59eb 0d3d
000003e0: c0b9 1abd fe24 ba3d 00f8 54bb 5ed5 c73d
000003f0: 9623 f63d 1871 79bd 1cc1 babd aa63 cd3d
0.102247976 0.05319154 0.11121079 0.11628577 -1.0179836 0.04378613 0.035865843 0.056347646
-0.14421792 -0.04612972 0.10526618 -0.03747031 -0.0062171966 -0.07536322 -0.076475635 2.1090074
-0.028279614 0.008646578 0.08557229 0.75341845 0.42107883 -0.12376745 0.1602931 0.10673358
-0.009722092 -0.032371342 0.3131354 -0.10868641 0.021276113 0.35467097 -0.056837723 -0.025058344
0.057953287 0.25858265 0.09470433 0.014107587 -0.37310633 -0.12336749 -0.10152237 0.11546923
0.06001322 0.14943148 0.08829539 0.16589788 0.47674763 0.040309053 -0.14134794 -0.11691858
0.059707876 -0.061371 0.7217593 -0.07193816 -0.022777945 -0.08797936 -0.08167696 0.044843316
-0.03714955 0.0771679 -0.040101096 -0.091695905 -0.022054866 -0.060593426 -0.038242698 -0.11899945
0.13154015 -0.086685054 0.1753211 0.24209695 -0.7424454 -0.010722711 0.1440258 0.011521384
0.075482935 0.117389336 -0.017628983 -0.031684775 -0.028778821 -0.10437307 0.059987858 2.013741
0.13622227 0.0967177 0.16358605 0.63050336 0.36968863 0.040752042 0.25569475 -0.08551668
0.0020646264 -0.074931934 0.25955033 -0.056695372 0.06623886 0.21633768 -0.118788004 0.10256344
0.2800382 0.16735502 -0.014235258 -0.02306166 -0.33343354 -0.12164305 0.046457306 -0.0099406475
-0.08035962 0.08311204 0.031552136 0.13167931 0.4528337 0.107037134 -0.020735307 -0.059850737
-0.036889605 0.1048134 0.66715425 0.033122435 -0.04337074 0.01015766 0.116537556 0.111239076
-0.10832496 0.04961285 0.118655354 0.032885417 0.08380309 0.12323594 -0.019153625 0.025944307
-0.08687939 -0.025759637 0.09257297 0.06408073 -0.07909863 -0.100235626 -0.08542046 -0.12335971
-0.09645487 -0.030912176 0.084359646 0.02092278 -0.09507568 -0.10027799 0.06218441 -0.09298016
-0.015390933 0.059963256 -0.05785151 -0.013629988 -0.01088056 -0.029572919 -0.06337902 -0.111429796
-0.101044625 -0.06693271 0.120729715 -0.060376838 -0.083941 0.030299276 0.03445129 0.06848872
0.09501505 0.06960927 -0.12393762 0.0110860765 0.07571913 -0.011553183 -0.0736599 0.11916748
-0.04675348 -0.071168065 -0.11269438 0.0055835396 0.05539164 0.027670354 0.024718717 -0.09479843
-0.116735905 0.0022011697 0.113979265 0.07211517 -0.07277928 -0.016226068 -0.09214795 -0.060302928
0.022637293 0.06806731 0.10354616 -0.11476326 0.0835769 -0.08816151 0.046808407 0.10578066
0.049608197 0.10195948 0.09754625 0.19423321 -0.6752438 0.044353243 -0.0032032817 -0.04343594
0.0679628 0.0613129 0.04005626 -0.099977896 -0.1014687 0.013520077 0.037034854 1.999978
-0.0053819795 0.10049424 0.046327736 0.76404405 0.5504652 -0.13562012 0.061338097 -0.058468483
-0.027815897 0.0389442 0.31848565 -0.08678056 0.24590296 0.30305788 0.08911279 -0.060514092
0.15600908 0.2154401 -0.08328439 -0.09687475 -0.16199996 -0.045720086 -0.09370725 0.12552908
0.10052036 0.044393364 -0.0067366734 0.08131067 0.5478035 0.1425743 0.047541898 -0.01580219
-0.044080064 0.06965326 0.71327686 0.079002246 -0.048494354 0.001913175 -0.024701983 0.034648273
-0.0377748 0.09089087 -0.0032496452 0.097574934 0.12018506 -0.06089887 -0.09118864 0.10028775

trunk.2.bias f4 [64]
00000000: e007 ae3e 1d78 a43e 48d1 24bd db41 db3e
00000010: 935e 8b3e 6b60 553e a056 c53c 6607 05be
00000020: 6e1a 593e 2845 843e e7f1 11be e3af 343e
00000030: b663 a03d bff5 553e 99ca 73bc f7af b8bb
00000040: 82cc 293e 31a7 c33d 9010 4bbc 9c6c 3abd
00000050: 6a8c ac3e 2592 123e 5463 993e 206a 4e3c
00000060: c506 98bd a6f1 5b3d b09f dabd fce6 8a3e
00000070: a59a 543e a1a5 dc3d e203 b53e 840f 073e
00000080: e06e 463d 0da6 98bc 5e59 ea3d 7b4e 1a3d
00000090: e19f 543e 4b8d cc3d e025 b7bc df4f 923e
000000a0: 0b32 6d3e b9c0 003f c8b9 983e 50b4 d93d
000000b0: 1895 723e f442 b23e 5889 b13e e9ea 693e
000000c0: e20d ccbd 23c8 a2bd 7ef7 8bbd 108f f43c
000000d0: 9c8e 4c3d 5c6d a63e ff33 ea3e dd07 83bb
000000e0: c256 053f 8a53 923d 70ce dcbd fb06 513d
000000f0: 491f 653e 9cd4 c93e ea3b 873e 12d5 ac3e
0.33990383 0.3212289 -0.04023865 0.4282368 0.27220592 0.20837562 0.024089158 -0.12991104
0.21201488 0.25834012 -0.14252435 0.1764522 0.07831518 0.20894526 -0.014879846 -0.005636211
0.1658192 0.095533736 -0.0123940855 -0.045513734 0.33700877 0.14313562 0.29958594 0.012598544
-0.07423166 0.05369725 -0.10674989 0.27129352 0.20762117 0.10773779 0.35354525 0.13189512
0.048445582 -0.018633867 0.11442827 0.0376725 0.20764114 0.09987887 -0.022356927 0.28576562
0.23163621 0.5029407 0.2982924 0.10630095 0.23689687 0.34816706 0.34675097 0.22843517
-0.099635854 -0.07948329 -0.06834315 0.029853374 0.04994069 0.3250531 0.45742795 -0.00399874
0.52085507 0.0714484 -0.10781562 0.051032048 0.22375216 0.3942002 0.26412898 0.3375631

cls_head.0.weight f4 [32, 64]
00000000: ae06 09bd fdea fe3c f045 9f3c 1ebb debd
00000010: e604 073e 8193 183e d050 85bd b202 a9bd
00000020: 7840 70bd 2191 92bd 5197 40bc 6e58 723d
00000030: 001e 67ba 8297 84bd 26a9 8d3d e4fd 913a
00000040: 8b4c 3abd 992d 23bd e682 96bd 74a0 34bd
00000050: 3f8a e6bd 0f35 663d 4a5c 12be 2006 463d
00000060: f2de b13d 9911 aabd 6819 87bd de22 3fbd
00000070: 6d4f 913d 671b fe3c e18b 79bd e631 b03d
00000080: e873 543d be0f c7bd 40cd debb 1869 5cbd
00000090: 055e d63c f49f a33d 9048 5cbc ebb0 1abd
000000a0: 22cf 003e 9d60 46be b596 453c bbb9 2d3d
000000b0: 8997 0e3e 9168 423e e6c4 af3b 63c9 d03d
000000c0: c6d3 e0bd 3f93 7abc cc42 1fbd e857 113d
000000d0: 5abb a7bd 8db0 b53d 0426 cbbd 4e83 c73d
000000e0: 3812 8fbd 1ae2 e93d cede f1bd c782 3cbd
000000f0: 4a62 953d f5b3 403b d8af 753d dc68 64bd
00000100: a4a0 9d3d 2643 f0bd 9c88 afbd e047 0bbc
00000110: aeb4 f8bd dc55 f3bd 7042 e3bd 36d2 cd3d
00000120: 989e e03c 505d 23bd 4057 a8bb 6622 dfbd
00000130: 84c7 f1bd 7087 b2bd 0caa f7bd f66c a83d
00000140: 282a 33bd 2036 0abd 0a74 dcbd 9098 a93c
00000150: 90a2 99bc 1a48 aebd 1a23 a43d eec8 d73d
00000160: b678 b6bd 680b 913d 2046 a6bc 80ae 9aba
00000170: 9cee 593d 80b1 babc 3a82 d93d 1082 9d3d
00000180: 822d a6bd c0ca 9bbd 12a5 fdbd ccec 233d
00000190: 508f c0bd e692 d6bd 6c16 a4bd 9819 fdbd
000001a0: 3c72 d0bd d057 e43d 74ff 8e3d 9ad2 e23d
000001b0: 8c5c 78bd 60ff 51bd f4a4 33bd 80fe 1f3b
000001c0: 7abf b7bd d81e 963c f211 a4bd 08d0 a13c
000001d0: d07e ea3d e0f3 ac3c dabc ba3d 5653 b6bd
000001e0: c082 90bc 1213 9ebd 2038 63bc 08ac 4bbd
000001f0: 945a 91bd e247 f7bd 90d8 3dbd e821 893c
00000200: 8024 b4bc a26c eebd 3a4d c03d 16d2 bd3d
00000210: bc57 9abd a030 503c 7efc a93d 261c f3bd
00000220: 9e33 e2bd a80b 8e3d 8040 22bb 500a 233d
00000230: f0ea 54bd 78a9 b93c 26ca a93d e084 fabc
00000240: f860 25bd aac2 f3bd 0003 9ebc e837 a23d
00000250: 08f0 f1bd 8033 1ebc 789b ba3d e021 12bd
00000260: f42a 3dbd 786f 1abd c070 4fbd 101e 753c
00000270: 527a f6bd 7ca7 433d 004f 01bd c85f 82bc
00000280: 402d 0abc ac02 8f3d a404 9fbd b2f4 e8bd
00000290: 6a2d b9bd 96cc bbbd d446 79bd 5a31 ca3d
000002a0: a40b c6bd e47b 96bd 30b1 d0bd dc9a 80bd
000002b0: c0f9 65bb 9a19 9cbd 002e ad3a 5406 2d3d
000002c0: c838 aebc 50e8 5c3d 90f9 ea3c 4a4c f73d
000002d0: a01d d1bb f0e3 dd3d 389d bf3d c8c2 743d
000002e0: 06e1 903d 9471 abbd 7474 abbd 6ca5 5a3d
000002f0: 6ce8 393d 0606 e73d 5853 85bc a83d bcbc
00000300: 3449 8e3d 97e8 47bb aa56 f03d 5fec 8bbd
00000310: 708f 6cbd 8c92 40bc 4289 883d 4c6d e0bd
00000320: 872f 56bd df37 983d cc44 1a3c 6694 913d
00000330: a86e 2dbd 42ee aabd ab9e 9dbd 238e afbd
00000340: 691a e3bd cc29 8b3d 409e 093d 88cb a3bd
00000350: 8898 c73d bbbd 943c 648b 3e3d 98bb 57bd
00000360: 64da 8e3d 8dd4 cdbd f69a ba3d 4dc6 a9bd
00000370: dad3 123d 74ac 53bd 8874 833d a856 fabd
00000380: 80a8 c7bc 6367 3cbd b214 99bd cc7d 7bbd
00000390: d718 40bd 628d 9a3b d8b5 b53d 775f cbbc
000003a0: ab23 d83d c26c 9abd 575c a7bd d239 babc
000003b0: f63d 23bd b2d4 b73c 5ffb c93d a106 d13c
000003c0: 8636 d6bd acd6 57bd b06e cbbc da1c e9bd
000003d0: ec4d 1e3d 1cfb bb3d c2fe 3b3d 8036 22bb
000003e0: 74d6 d4bc 30c4 6fbd 0085 63bc 9de2 f13d
000003f0: e59b a5bd 7dc1 953c 0f40 debd 7a69 50bd
-0.033453636 0.03111791 0.019442528 -0.108755335 0.13185462 0.14900018 -0.065095544 -0.08252467
-0.058655232 -0.071565874 -0.011754827 0.059166364 -0.0008816421 -0.0647421 0.06917028 0.0011138287
-0.045483153 -0.039838407 -0.07349186 -0.044098333 -0.11256837 0.056202944 -0.14293018 0.048345685
0.086851016 -0.08304138 -0.06596643 -0.04666411 0.070952274 0.031018926 -0.060924415 0.08603267
0.05186835 -0.097197995 -0.00679937 -0.053811163 0.026167879 0.07989493 -0.013445035 -0.03776638
0.12579015 -0.19372793 0.012059857 0.042413455 0.13924994 0.18985201 0.0053640483 0.101946615
-0.109778926 -0.015293895 -0.03888206 0.035484225 -0.08190031 0.08871565 -0.0991936 0.09741841
-0.06985897 0.114200786 -0.11810075 -0.046023156 0.07294138 0.0029404138 0.05998215 -0.055764064
0.076966554 -0.117315575 -0.08570978 -0.008501023 -0.12143837 -0.11881611 -0.11096656 0.1004986
0.027419373 -0.03988391 -0.005137354 -0.10895233 -0.11805633 -0.08717239 -0.12092981 0.08223908
-0.043741375 -0.033743024 -0.1076432 0.02070263 -0.018754274 -0.08509846 0.080145076 0.10536371
-0.089097425 0.07082254 -0.02029711 -0.0011801273 0.05320607 -0.022789717 0.10620542 0.07690823
-0.08114149 -0.07607031 -0.12385 0.04002075 -0.09402335 -0.104772374 -0.08012089 -0.12358397
-0.101780385 0.111495614 0.069823176 0.11075325 -0.060635135 -0.051268935 -0.043858483 0.0024413168
-0.08972068 0.018325254 -0.08011235 0.019752517 0.11449969 0.021112382 0.09118052 -0.08902614
-0.017640471 -0.07718481 -0.013868362 -0.04972461 -0.070973545 -0.120742574 -0.04634911 0.0167398
-0.02199006 -0.11641814 0.0938973 0.09268586 -0.07536265 0.012706906 0.08300112 -0.11870603
-0.110450014 0.06935817 -0.0024757683 0.039804757 -0.051981866 0.022663817 0.0829051 -0.030580938
-0.04037568 -0.119023636 -0.01928854 0.079208195 -0.118133605 -0.009655833 0.091116846 -0.035676837
-0.04618354 -0.03770396 -0.050644636 0.014960781 -0.120350495 0.047767147 -0.03156948 -0.015914813
-0.00843364 0.069829315 -0.07764557 -0.11374797 -0.09041865 -0.09169881 -0.060858563 0.09872694
-0.09670189 -0.07347849 -0.10190046 -0.06279537 -0.003509149 -0.076220706 0.0013212562 0.042242363
-0.02126731 0.053932488 0.028683454 0.12075098 -0.0063817054 0.10834491 0.09356159 0.05975607
0.0707417 -0.08371273 -0.08371821 0.053380415 0.04538767 0.11280446 -0.016275093 -0.022978619
0.06947556 -0.0030503625 0.1173528 -0.068321936 -0.05775398 -0.0117536895 0.06666805 -0.10958347
-0.05229142 0.074325316 0.0094158165 0.07108383 -0.04234186 -0.08346225 -0.07696279 -0.08572032
-0.11089022 0.067950815 0.033598185 -0.07997805 0.0974589 0.018156877 0.046519652 -0.052669138
0.069752485 -0.100503065 0.09111588 -0.08289776 0.03584657 -0.051678136 0.06418711 -0.122235596
-0.02437234 -0.045997035 -0.074746504 -0.061399266 -0.04689869 0.004716561 0.088725746 -0.024825795
0.10553678 -0.07540275 -0.08171909 -0.022732649 -0.039854012 0.022440288 0.09862398 0.025515856
-0.10459618 -0.05269496 -0.024833053 -0.11382456 0.03864853 0.09178755 0.045897253 -0.0024751723
-0.025981165 -0.05853671 -0.01388669 0.11810801 -0.08086375 0.018280739 -0.10852062 -0.05088184

cls_head.0.bias f4 [32]
00000000: 3c5b 26be 282f 9ebd 4494 9a3d 9a1f 80bd
00000010: d800 b43c 19f5 543e 3625 a43d c36e 05bf
00000020: 0f08 003e a4f3 b3be a111 d9be 307c ee3e
00000030: a638 963d eded 8bbe e9d3 103f a885 d0bd
00000040: 804c 7ebc 6760 0dbf 25ef 97be cb1e e13e
00000050: d9cf f5bd a70a d93b e809 b53e 3608 64bc
00000060: d626 20bd 3e5b 8f3d e515 f43c c05c 1f3b
00000070: 4cd9 f33e 44e6 60bd cd6e 0cbe bb38 de3d
-0.1624574 -0.07723838 0.07547811 -0.062560275 0.021973059 0.20796622 0.0801491 -0.52122134
0.12503074 -0.3514682 -0.42396262 0.46579123 0.073350236 -0.2732996 0.5657335 -0.10181743
-0.015521169 -0.55225223 -0.2967464 0.43968806 -0.120025344 0.0066235843 0.3535912 -0.013917973
-0.039099537 0.06999825 0.029795596 0.0024316758 0.47626722 -0.0549071 -0.13714142 0.10850664

cls_head.2.weight f4 [3, 32]
00000000: 2917 2fbe 483e 113d bd5d 673b 754b 0a3e
00000010: cb06 283e 73bb 42bd c107 a03b ff4e a6bd
00000020: 3a1c 5c3e 9d98 f03e 2c1b 0dbf 009f aebb
00000030: 2587 45bd 842c 3ebe 933d 103e 7f34 22be
00000040: 954d c6bc a858 4c3d 2b67 e63b b446 2c3d
00000050: 31be e33d 847f 09be 9528 413d 476a 2b3a
00000060: f25d 753d 9642 22be 6c54 213e 7e7f 86bd
00000070: 75e1 0e3e 6aad b8bd e806 6e3d c5d9 623d
00000080: 2dc9 5d3e d1b0 a93d e054 ca3d e0a8 aebc
00000090: 875c 0fbe 3cdd 123c 45c4 1c3e 1cf3 a93d
000000a0: e174 7ebe 76a0 bb3e 21e1 ca3e a617 bcbb
000000b0: f0ae b03d e612 033d 6994 aebd 8731 f9bd
000000c0: 7056 b2bc acaf 013f a603 e93c 0c9a 39be
000000d0: c902 22bb 9aee d93d a44c 2dbe 9b3c 173e
000000e0: 728b 1a3f 5fc9 0f3e 129c 1c3e d1c5 02be
000000f0: aad7 7bbe f5da ff3d 0911 31bc 63c0 183e
00000100: 8a2b d73d a756 8dbd 7370 4f3d 0ef3 453d
00000110: 62ca 67bd c2af b63d 54ae ba3c 136c 10bd
00000120: 99fa dabd 82e6 05bf 99b5 4c3e efff 143e
00000130: 9ba3 54bd aaaf 3a3d 801a 213e 5cf6 2b3e
00000140: b953 eebd e650 15bf 5007 293d 5983 e83a
00000150: 24c8 71bd bac2 c43d b54c 8d3d 5995 32bd
00000160: 8812 efbe f0f0 023e 07a9 2c3e 3c4e c83c
00000170: 8e77 263d b0a7 cb3d 036e b13c 5e5a 0c3c
-0.17098679 0.035459787 0.0035303675 0.13505347 0.16408841 -0.047542047 0.004883737 -0.08120536
0.21495143 0.46991435 -0.55119586 -0.005329013 -0.048224587 -0.18571669 0.14085989 -0.15840338
-0.024206916 0.049889237 0.0070313415 0.042059615 0.111202605 -0.1342755 0.047157843 0.0006538969
0.059904046 -0.15845713 0.1575486 -0.06567286 0.13953193 -0.09017451 0.058112055 0.055383462
0.21658774 0.08285678 0.0987947 -0.02132076 -0.1400014 0.008963879 0.15309246 0.082983226
-0.24849273 0.3664586 0.39624885 -0.005740124 0.08627117 0.032000445 -0.08524401 -0.1216765
-0.021769732 0.5065868 0.028444123 -0.1812517 -0.0024720898 0.10641213 -0.16923767 0.14769213
0.60369027 0.1404166 0.15293911 -0.12770773 -0.24593988 0.124929346 -0.010807284 0.1491714
0.10506351 -0.06901293 0.05064435 0.0483275 -0.05658949 0.08920242 0.022788204 -0.035259318
-0.10692329 -0.5230485 0.19991149 0.14550756 -0.05191384 0.045577683 0.15732765 0.16793197
-0.116370626 -0.58326566 0.04126674 0.001773934 -0.05902876 0.09607454 0.06899396 -0.04359946
-0.46693826 0.12787223 0.16861354 0.024451368 0.04064136 0.09944093 0.021658903 0.008566467

cls_head.2.bias f4 [3]
00000000: 00a6 ad3e 01d3 17bf 5246 113f
0.3391571 -0.5930634 0.56747925

reg_head.0.weight f4 [32, 64]
00000000: 3c92 553e f9df 233e c04f b0bb 449e 473e
00000010: f4bb 713e 7f9f 813e d4ef 9c3d 4af8 59bd
00000020: ec10 993e 75e6 9a3e 5778 8c3d 9574 3e3e
00000030: 96e1 90bd 7af2 073e 0eca 293c 0962 98bd
00000040: 96ed 6f3e d6bb dabd 4847 e4bd 20f8 65bd
00000050: 3727 873e 92d4 8e3e 5b5f 043e 1cac a1bd
00000060: 5b61 763d 8a63 2fbc 16cb d1bd 6e2f 643e
00000070: d4fd bc3d 051d 6d3c ca79 5e3e 173e 9b3e
00000080: dc7a dabd 7e5d e23d 407d 8e3c 9854 ea3d
00000090: c43d a13e cde2 a4bc b07b 9fbc 252e 3a3e
000000a0: cd67 8e3e 6f16 2e3e b088 893e d9ee 923e
000000b0: f372 973e 493b 873e 09a5 933e c94b b23d
000000c0: 7ebe 86bd 840f a2bd 1c3a 7e3d a850 d03c
000000d0: 1428 433d 9781 663e ef1e 973e de32 5b3d
000000e0: 7ad2 333e 4652 a63d 6465 dcbd ab21 d5bd
000000f0: de41 7a3e e234 a93e afeb 213e fbce a13e
00000100: fb27 67bd e905 dbbd a035 9fbc 03fd 6f3d
00000110: 580a 9ebd fa34 d73d b4f7 64bd 04a1 62bd
00000120: 32a6 83bd 86ef dbbd 5108 d63d b7ae a8bd
00000130: f85a 66bd b2f6 4dbd 1dad c33d c5a6 3d3d
00000140: cfc5 0a3d 22db 21bd 4e60 813d d0c1 b93c
00000150: 2504 b33d 4f2b 7e3c 06e5 bb3d f4ab b03d
00000160: 6a2a 1f3c 1932 06be 505a d03c ad1d d8bd
00000170: 9f8a 1e3c 5904 a9bc 4bf8 b23d bcdc d0bd
00000180: c604 d6bd cdb2 343d 0207 a93d 18de debc
00000190: 8b65 bc3c 44c2 b83d 80b8 4b3c 94bd 34bd
000001a0: d992 763d 4b29 ce3d 5ae2 08bd 8104 953d
000001b0: bd2b ddba 3922 1dbd 2d53 bcbc 94b9 08be
000001c0: 8c9e 753d 5dc0 9ebd 7006 dabd 38f8 8dbc
000001d0: 1c9b 50bd a9e9 bbbd bf61 1dbd 4025 58bc
000001e0: 8b42 d43c 3059 8c3c 08d1 88bc 0b04 8a3c
000001f0: 535d bebd 3760 c53d 0530 493d 4966 893d
00000200: 7042 0e3e d4ba 8a3e 5801 b53c 9779 8d3d
00000210: 770a 9b3e 2f28 223e d862 c43c ae81 d23d
00000220: 0594 8a3e b308 aa3e f218 bebd 6b91 983e
00000230: c86d f93c 68f4 583e 6d2b b5bd ee87 46bd
00000240: 8c36 a13e 9eff cb3d 288e c73d 101c 2cbc
00000250: c6fb 003e 3526 5a3e 3b83 363e 38a4 a6bd
00000260: 9895 963d 829c e13d 8663 c4bd 6e5c a53d
00000270: a20a 5d3e 4b24 19bd 3d53 d23d 2c12 293e
00000280: c0de ecbb c3c8 8dbc 1e94 bd3d 8519 993d
00000290: 61a0 6f3e 315a edbc 808c 36bc 89af 973e
000002a0: 2a13 453e b8f1 dd3d d8b2 4d3e f639 9c3e
000002b0: 7c73 183e 5aa8 1e3e bbb2 313e db0d 8a3e
000002c0: 1463 d33d 4047 b5bd 9eaa a83d 40a9 513d
000002d0: 643b 333d e83a e03d 4b7e 643e 6e0b 053e
000002e0: 8188 903e 38e5 e3bc 5067 cfbc 7d8b c13d
000002f0: e07b 323e 201f 9a3e 6ca2 303e 3ed3 6c3e
00000300: c66f 913c c069 aabd 007e 4a3b b04b cd3b
00000310: 28bc 0cbe 14ab 26bd 20fc 423c bad9 d23d
00000320: 8aaa 363c d73a ffbd 324d 55bd 68e8 d83d
00000330: 0841 85bc 559e 983d 8c5a 993b 5652 893d
00000340: 98aa 8ebd f7e4 ed3d d01c d83c e8a4 d1bc
00000350: c469 a33d 44cc 363d 44aa b8bd a041 13bc
00000360: 4667 973d 68e1 9d3c c8ec 21bd d794 c9bd
00000370: 69ce d7bd adba 803d d5d9 233d 7c5d 03be
00000380: 4841 d2bc 47a1 9b3c 0e80 e2bd c89e dc3d
00000390: 84e0 d8bc cbc0 79bd 000a 643c 8905 0e3d
000003a0: 09fa 403c 1c90 d23d 8874 5c3d f729 dfbc
000003b0: 976e 9b3b 099c 643c 35c3 83bd 5687 fcbd
000003c0: 10da 59bc e0be 69bd 64d3 f1bd 1098 363d
000003d0: 14d3 56bd 6749 d33d b3eb ec3c c40a 5a3d
000003e0: e330 ad3c 14ae 473d b0e9 a33d 8b35 a63d
000003f0: 3c44 b6bc 586a 5abd 058d 943c d9bb 93bd
0.20856565 0.16003408 -0.0053806007 0.19493967 0.23606855 0.25316998 0.07662931 -0.053215303
0.29895723 0.3025395 0.068588905 0.1859916 -0.07074277 0.13276091 0.010363115 -0.07440574
0.23430476 -0.10680358 -0.11146408 -0.056144834 0.26397106 0.27896553 0.12927 -0.078941554
0.06015144 -0.010704884 -0.10243814 0.22283718 0.092281014 0.014472251 0.21726146 0.30320808
-0.10667965 0.110529885 0.017393708 0.11441916 0.31492436 -0.020127678 -0.019468158 0.18181665
0.2781357 0.17000745 0.26862097 0.2869785 0.29579887 0.26412418 0.2883685 0.08705861
-0.06579302 -0.079131156 0.062067136 0.025429085 0.047645643 0.22510372 0.29515788 0.053515308
0.17560759 0.08121161 -0.10761526 -0.10406812 0.24439189 0.3304816 0.15812562 0.31603226
-0.056434613 -0.10694487 -0.01943475 0.0585909 -0.07716817 0.10508151 -0.05590029 -0.055329338
-0.064281836 -0.10739045 0.10450805 -0.08236449 -0.0562391 -0.050284095 0.09554503 0.046301622
0.03388005 -0.039515622 0.06317197 0.022675425 0.08741025 0.015513255 0.09174542 0.086265475
0.009714702 -0.13105048 0.02543369 -0.10552535 0.0096766045 -0.020631956 0.087387644 -0.10198352
-0.10450129 0.04411583 0.0825329 -0.027205512 0.022997638 0.09021428 0.012434125 -0.04412611
0.06019864 0.1006647 -0.03341899 0.0727625 -0.0016873997 -0.038362715 -0.02298888 -0.13352042
0.059965655 -0.07751534 -0.10645759 -0.017330274 -0.050929174 -0.091754265 -0.038423296 -0.013192475
0.025910636 0.017132372 -0.016701236 0.016847631 -0.09295144 0.09637492 0.04911806 0.067089625
0.13892531 0.27095664 0.022095367 0.06907957 0.30281422 0.15835641 0.023972914 0.10278641
0.27066055 0.33209762 -0.09282102 0.29798445 0.030447856 0.21186984 -0.088461734 -0.048469476
0.31486928 0.099608645 0.09743911 -0.0105047375 0.12596044 0.21303637 0.17823498 -0.08136791
0.073527515 0.110161796 -0.09589295 0.0807427 0.21586087 -0.037388127 0.10269783 0.16510838
-0.0072287023 -0.017307645 0.09256767 0.074755706 0.23401023 -0.02897367 -0.011141896 0.2962611
0.19245592 0.1083712 0.20087755 0.3051297 0.14887804 0.15493909 0.17353337 0.26963696
0.10321632 -0.088514805 0.08235668 0.0511868 0.04375781 0.109487355 0.22313802 0.12992641
0.28229144 -0.027819261 -0.025317818 0.094504334 0.17430067 0.30101871 0.17249459 0.23127457
0.017753493 -0.083209515 0.0030897856 0.006265126 -0.13743651 -0.040690497 0.011900932 0.10295434
0.011149058 -0.12462395 -0.052075572 0.10591203 -0.01626636 0.074520744 0.0046799835 0.067051575
-0.06966132 0.11615937 0.026380926 -0.025591329 0.079791576 0.044628397 -0.090168506 -0.008987814
0.07392745 0.019272521 -0.039532453 -0.09842842 -0.105374165 0.062856056 0.040002663 -0.1282863
-0.025665894 0.018997801 -0.11059581 0.107724726 -0.026474245 -0.060974877 0.0139184 0.034673247
0.011778363 0.10281393 0.05382207 -0.02724169 0.004743408 0.013953217 -0.06433717 -0.12330501
-0.013296619 -0.0570668 -0.11807898 0.04457861 -0.052447394 0.10316735 0.028920984 0.053232923
0.021141475 0.04875 0.08003557 0.08115681 -0.022249334 -0.053324074 0.01813365 -0.072135635

reg_head.0.bias f4 [32]
00000000: be94 653e 981e 73bd 35ed 7d3e fdbc 89bd
00000010: 6547 b43c a2e5 a73d caa0 3f3d 93f0 523e
00000020: 8757 aa3e f016 34bc ca56 e4bd 213d 7d3e
00000030: e799 9e3e 39cd 5f3e c45a e03d f6ed 713d
00000040: e8fb 503d f184 963e ac9c ebbd 807e c3ba
00000050: d96f d13d c6d3 453e 3aa2 fdbd e025 f23b
00000060: b44e 483d e026 a0bd 1b6c 71bd aaf7 b4bd
00000070: fb1d 2e3c 2e1e ae3d 450f 0d3e a0d3 e33b
0.22420022 -0.05935535 0.24797519 -0.067255 0.0220067 0.08198096 0.0467842 0.20599584
0.33269903 -0.010991797 -0.11149366 0.2473035 0.30976793 0.2185563 0.10954812 0.059064828
0.051021487 0.293983 -0.11504492 -0.0014915019 0.10226411 0.19319066 -0.12384458 0.007389769
0.048903182 -0.07819915 -0.058940988 -0.08836301 0.010627265 0.0850185 0.13775356 0.006952718

reg_head.2.weight f4 [1, 32]
00000000: b097 7c3e 77d1 10be 62f5 763e b819 66bd
00000010: 2b7e 53bb 81ec fbbd 97fa 00be 5a37 683e
00000020: aa3e 713e 1394 1b3e 6f54 2a3e 92be a83e
00000030: 4856 8c3e ed3f a73e 929b 9a3d de21 20be
00000040: 3ebd 033e 5ec8 653e 21ab 5abb 7c56 57bd
00000050: d8e2 b03e 51ba a43e f59b 8bbb 0856 87bd
00000060: 8fa5 c2bd 78ba 933d b41b ccbd dd13 e1bd
00000070: 7af8 b0bd 990b 813e 28e1 ae3e f3b8 103d
0.24667239 -0.14142404 0.24117044 -0.05617687 -0.0032271247 -0.12300969 -0.12595592 0.22677365
0.2355906 0.15193205 0.16633771 0.32957894 0.27409577 0.3266596 0.07549204 -0.1563792
0.12865159 0.22439715 -0.003336616 -0.052572712 0.34548068 0.32173398 -0.004260535 -0.06608206
-0.09504234 0.072133005 -0.099662215 -0.10990117 -0.08641143 0.2520416 0.34156156 0.03533263

exp_avg f4 [64, 2]
00000000: d703 0d3d e065 1a3d 8846 1dbc baa0 3ebc
00000010: 5176 853d b257 923d a119 da3d ae6b d63d
00000020: 6df0 15bf 34b6 18bf 2d2f 3c3d 6775 513d
00000030: 5b1f 253d 5278 333d cd63 d93c 3c5c f13c
00000040: 9e1c 333c cf7a 533c 0000 0000 0000 0000
00000050: 0000 0000 0000 0000 1a60 b7bc c0b4 d2bc
00000060: 0000 0000 0000 0000 0000 0000 0000 0000
00000070: 0000 0000 0000 0000 53eb babe dc22 76be
00000080: bcc8 8a3c e97f a33c 7ec9 ae3b 9669 b13b
00000090: 13bd 073d 7feb 133d 422c ba3e 90f7 cb3e
000000a0: 030a 863e 0de1 923e 730b b3bb 165c d8bb
000000b0: 6e05 e13d 2ef0 f93d 4c63 213c 6278 3a3c
000000c0: 1b28 873c c954 953c 0000 0000 0000 0000
000000d0: 85f2 4a3e 30e7 423e 21d7 9abc 37c7 a6bc
000000e0: 078b 853d 2acc 923d d353 153e 4f65 243e
000000f0: 0000 0000 0000 0000 0000 0000 0000 0000
00000100: a507 d63d 1528 ed3d b7e3 e23d 2d4b fa3d
00000110: 0000 0000 0000 0000 3fdc 603c 2127 7b3c
00000120: 1a0e dbbd 6dca e5bd 0000 0000 0000 0000
00000130: 0000 0000 0000 0000 d039 2d3d 717b 373d
00000140: 0000 0000 0000 0000 1f2d 403d 6fef 5c3d
00000150: 5e6f 0d3d 99c5 1e3d ac50 663d 4292 773d
00000160: 4aa9 963e 20a2 953e d6e3 9b3d 894a ac3d
00000170: 769e 1b3c a39e 1f3c 0000 0000 0000 0000
00000180: a829 f73c 3959 0c3d 0000 0000 0000 0000
00000190: ba28 f83e 5453 f83e 0000 0000 0000 0000
000001a0: 0000 0000 0000 0000 0000 0000 0000 0000
000001b0: 0000 0000 0000 0000 af7e d53c 7670 f43c
000001c0: 0000 0000 0000 0000 0000 0000 0000 0000
000001d0: 0000 0000 0000 0000 0000 0000 0000 0000
000001e0: 0000 0000 0000 0000 0000 0000 0000 0000
000001f0: 0000 0000 0000 0000 0000 0000 0000 0000
0.03442749 0.03769481 -0.0095993355 -0.011635 0.06516708 0.07145633 0.106494196 0.10469757
-0.58569986 -0.5965302 0.045943428 0.051137354 0.040313106 0.04381592 0.026536847 0.029462926
0.010932116 0.012907698 0.0 0.0 0.0 0.0 -0.022384692 -0.025720954
0.0 0.0 0.0 0.0 0.0 0.0 -0.36507663 -0.24036735
0.01694142 0.019958453 0.0053340783 0.005414198 0.0331393 0.03611326 0.3636189 0.39837313
0.26179513 0.28687325 -0.0054640113 -0.0066027744 0.10987364 0.12204014 0.009850334 0.011381241
0.016498616 0.018228905 0.0 0.0 0.19819076 0.19033504 -0.01890141 -0.020358665
0.06520658 0.071678475 0.14582758 0.16054271 0.0 0.0 0.0 0.0
0.10450677 0.11579911 0.110785894 0.1222137 0.0 0.0 0.013724386 0.015329153
-0.10696049 -0.1122025 0.0 0.0 0.0 0.0 0.042291462 0.044795457
0.0 0.0 0.04691803 0.05393928 0.034530036 0.038762663 0.05622928 0.060442217
0.29426032 0.29225254 0.07611816 0.08412654 0.009498229 0.009742412 0.0 0.0
0.03017123 0.034264777 0.0 0.0 0.48468572 0.48501074 0.0 0.0
0.0 0.0 0.0 0.0 0.0 0.0 0.026061384 0.029838782
0.0 0.0 0.0 0.0 0.0 0.0 0.0 0.0
0.0 0.0 0.0 0.0 0.0 0.0 0.0 0.0

exp_avg_sq f4 [64, 2]
00000000: 2eb5 733e 552b 5e3e e9c2 023d 567a ed3c
00000010: 2f7c 243f 6be3 163f d1f7 643f 548f 5e3f
00000020: b118 ea41 8f94 bb41 15ac f03e 57cb da3e
00000030: e5c5 9e3e 5b96 903e bba9 0f3e 6da6 023e
00000040: 5a44 513d 461d 3e3d 0000 0000 0000 0000
00000050: 0000 0000 0000 0000 97ed 103e 3d04 043e
00000060: 0000 0000 0000 0000 0000 0000 0000 0000
00000070: 0000 0000 0000 0000 13e9 0342 fea6 8441
00000080: 2e63 cc3d 4422 b93d fe87 bd3b 6aee b03b
00000090: 7b63 663e d99e 513e 4a47 bc41 9b4d ab41
000000a0: e2bc 4341 9940 3241 3d33 3e3c eb04 2f3c
000000b0: 0e74 1d40 9b16 0f40 b5bd fe3c f06e e53c
000000c0: 0fc9 9e3e 204a 663e 0000 0000 0000 0000
000000d0: d9e9 1b40 33e7 1740 d42b 663d 6de1 513d
000000e0: 8ef4 483f f2f2 363f e2ee 8040 3671 6a40
000000f0: 0000 0000 0000 0000 0000 0000 0000 0000
00000100: eb7d 0a40 eb11 fc3f eba2 1440 550d 0740
00000110: 0000 0000 0000 0000 b231 653d 3c9d 513d
00000120: f65b cc3f 0daa 9b3f 0000 0000 0000 0000
00000130: 0000 0000 0000 0000 0eb6 823e aaf3 6d3e
00000140: 0000 0000 0000 0000 e441 0e3f 8d4c 013f
00000150: 84cc 803e 9ac1 6a3e 85ac cb3f fe3f 923f
00000160: 3b2d e840 0baa d740 577a 9f3f 54ed 903f
00000170: 0829 2f3c 8b3c 1e3c 0000 0000 0000 0000
00000180: 9222 543e aecb 3f3e 0000 0000 0000 0000
00000190: 5523 b341 9d61 a441 0000 0000 0000 0000
000001a0: 0000 0000 0000 0000 0000 0000 0000 0000
000001b0: 0000 0000 0000 0000 998f 2c3e 0d36 1c3e
000001c0: 0000 0000 0000 0000 0000 0000 0000 0000
000001d0: 0000 0000 0000 0000 0000 0000 0000 0000
000001e0: 0000 0000 0000 0000 0000 0000 0000 0000
000001f0: 0000 0000 0000 0000 0000 0000 0000 0000
0.23799583 0.21696217 0.031924162 0.028988998 0.6425199 0.5894076 0.8944064 0.8693745
29.262056 23.447538 0.47006288 0.4273326 0.31010357 0.28239712 0.14029591 0.12758799
0.051090576 0.046414636 0.0 0.0 0.0 0.0 0.14153133 0.12892242
0.0 0.0 0.0 0.0 0.0 0.0 32.97761 16.58154
0.099798545 0.09039739 0.005784034 0.005399515 0.22498886 0.20470752 23.53481 21.412893
12.233614 11.140771 0.011608896 0.010682325 2.4602084 2.2357547 0.031096319 0.028007
0.3101277 0.22489214 0.0 0.0 2.436148 2.3734863 0.05619414 0.051240373
0.7849816 0.71464455 4.0291605 3.6631598 0.0 0.0 0.0 0.0
2.1639354 1.9692968 2.3224437 2.1101887 0.0 0.0 0.055955596 0.05117534
1.5965564 1.216127 0.0 0.0 0.0 0.0 0.25529522 0.23237482
0.0 0.0 0.5556929 0.5050743 0.25156033 0.22925416 1.5912024 1.1425779
7.2555213 6.739507 1.245921 1.1322427 0.010690935 0.009657989 0.0 0.0
0.20716313 0.18730041 0.0 0.0 22.392252 20.547663 0.0 0.0
0.0 0.0 0.0 0.0 0.0 0.0 0.16851653 0.15254994
0.0 0.0 0.0 0.0 0.0 0.0 0.0 0.0
0.0 0.0 0.0 0.0 0.0 0.0 0.0 0.0

exp_avg f4 [64]
00000000: 2977 b83b 1b67 beba 9613 243c 82e9 993c
00000010: b3de ebbd 446d fa3b 427f df3b 0b7e a23b
00000020: 2a2c f83a 0000 0000 0000 0000 9afe 64bb
00000030: 0000 0000 0000 0000 0000 0000 84b2 a5bd
00000040: e690 383b b8ec 403a 3df8 b93b 3a76 743d
00000050: eaac 2e3d bf0d 3dba 65bd 943c b82b ee3a
00000060: 159e 5938 0000 0000 6ffa 113d 37fc 46bb
00000070: fc59 2d3c d20c c63c 0000 0000 0000 0000
00000080: 91c9 8a3c 370a 963c 0000 0000 0d5c 1b3b
00000090: 8dc1 bebc 0000 0000 0000 0000 cb10 ed3b
000000a0: 0000 0000 917d 0c3c d679 ce3b 2dc2 c73b
000000b0: 0027 3e3d 07b9 513c c492 ef3a 0000 0000
000000c0: e453 bc3b 0000 0000 3286 993d 0000 0000
000000d0: 0000 0000 0000 0000 0000 0000 4ff4 8d3b
000000e0: 0000 0000 0000 0000 0000 0000 0000 0000
000000f0: 0000 0000 0000 0000 0000 0000 0000 0000
0.0056294394 -0.0014526577 0.010014435 0.018788103 -0.11517086 0.00764242 0.0068205902 0.004958873
0.001893406 0.0 0.0 -0.0034941793 0.0 0.0 0.0 -0.0809069
0.0028162538 0.00073594926 0.0056753443 0.059683062 0.042645372 -0.0007211826 0.018156717 0.0018170988
5.1884057e-05 0.0 0.035639223 -0.0030362734 0.010580536 0.024176035 0.0 0.0
0.016941817 0.018315418 0.0 0.002370599 -0.023285652 0.0 0.0 0.007234668
0.0 0.008574859 0.006301145 0.0060961456 0.046423912 0.012800462 0.0018277992 0.0
0.005747305 0.0 0.07496299 0.0 0.0 0.0 0.0 0.0043321024
0.0 0.0 0.0 0.0 0.0 0.0 0.0 0.0

exp_avg_sq f4 [64]
00000000: d26c 1a3c 9dcd a43a c752 d13c 3436 113d
00000010: 817c 8e3f 3cbd 973c ddfb 473c 9a9f b23b
00000020: b703 023b 0000 0000 0000 0000 3197 b73b
00000030: 0000 0000 0000 0000 0000 0000 6c09 a13f
00000040: cb52 803b e04e 5239 5969 103c 0c7b 6e3f
00000050: fe29 f83e 1600 e439 77de c63d d9fa 9b3a
00000060: 5704 553c 0000 0000 fc29 c63d d1b1 123b
00000070: 0bbf fe3c 7ffa 223e 0000 0000 0000 0000
00000080: 2f67 af3d dcef bb3d 0000 0000 226e 0e3b
00000090: 2b6b 883d 0000 0000 0000 0000 b6e0 243c
000000a0: 0000 0000 c31b b23c f958 213c 91dd 8c3d
000000b0: d71a 963e 12cb 483d 895a d339 0000 0000
000000c0: a58c 023c 0000 0000 8ea3 673f 0000 0000
000000d0: 0000 0000 0000 0000 0000 0000 234b d93b
000000e0: 0000 0000 0000 0000 0000 0000 0000 0000
000000f0: 0000 0000 0000 0000 0000 0000 0000 0000
0.009425359 0.0012573485 0.025552167 0.035452083 1.1131746 0.018522851 0.012206045 0.005451155
0.001983864 0.0 0.0 0.00560274 0.0 0.0 0.0 1.2581
0.0039161197 0.00020056544 0.008814179 0.93156505 0.48469537 0.00043487613 0.097104006 0.001190032
0.013001523 0.0 0.09675977 0.002238382 0.031096956 0.15915869 0.0 0.0
0.085646026 0.09176609 0.0 0.0021733125 0.06661066 0.0 0.0 0.010063341
0.0 0.021741753 0.009847873 0.06878198 0.29317352 0.049021788 0.0004031251 0.0
0.007968103 0.0 0.9048394 0.0 0.0 0.0 0.0 0.0066312714
0.0 0.0 0.0 0.0 0.0 0.0 0.0 0.0

exp_avg f4 [64, 64]
00000000: 9d74 cb3c 0718 f43b c772 353a fd8c 043b
00000010: f917 913a 7216 8e3c 29d8 4b3c 187e 103b
00000020: 4f13 1d3c 0000 0000 0000 0000 bbb3 8b3b
00000030: 0000 0000 0000 0000 0000 0000 009e 86b9
00000040: 9b7d 503c 1bc7 763b 7c1b 863c fd60 ac3a
00000050: 15d8 b83a 8027 7c3c 878a 223b fdfa d23b
00000060: 8e6d 16ba 0000 0000 779c 483b f9f3 1b3c
00000070: d2a0 9c3b 6470 4b3b 0000 0000 0000 0000
00000080: 4f60 613b ad67 673b 0000 0000 9a34 703c
00000090: d78a 0a39 0000 0000 0000 0000 811e 9e3c
000000a0: 0000 0000 55fa 4c3b 7d44 483b f301 3bba
000000b0: 7493 a43a 4251 a93a 9746 523c 0000 0000
000000c0: 9008 b43b 0000 0000 017a 5f3a 0000 0000
000000d0: 0000 0000 0000 0000 0000 0000 71e9 803c
000000e0: 0000 0000 0000 0000 0000 0000 0000 0000
000000f0: 0000 0000 0000 0000 0000 0000 0000 0000
00000100: b1f8 863c bca5 aa3b 75a4 aa39 20ff be3a
00000110: b3e0 aa39 7d3a 393c 4ed6 053c bcb7 b03a
00000120: cebf cf3b 0000 0000 0000 0000 8731 483b
00000130: 0000 0000 0000 0000 0000 0000 8461 87b9
00000140: bfbd 083c 3615 2d3b 60c8 333c 704e 0d3a
00000150: bdcb 153a 0355 2b3c 4176 ac3a 55a0 8a3b
00000160: f779 1bba 0000 0000 0630 103b 9071 d33b
00000170: 07bc 423b bc3b d23a 0000 0000 0000 0000
00000180: 13b8 013b 4198 fd3a 0000 0000 bec3 1f3c
00000190: 7dde 96b9 0000 0000 0000 0000 639a 523c
000001a0: 0000 0000 7571 f83a 1229 f43a 04e0 40ba
000001b0: 6bea 4c3a 351a 3a3a 0c95 0d3c 0000 0000
000001c0: 6a74 613b 0000 0000 573e d639 0000 0000
000001d0: 0000 0000 0000 0000 0000 0000 6176 293c
000001e0: 0000 0000 0000 0000 0000 0000 0000 0000
000001f0: 0000 0000 0000 0000 0000 0000 0000 0000
00000200: 0000 0000 0000 0000 0000 0000 0000 0000
00000210: 0000 0000 0000 0000 0000 0000 0000 0000
00000220: 0000 0000 0000 0000 0000 0000 0000 0000
00000230: 0000 0000 0000 0000 0000 0000 0000 0000
00000240: 0000 0000 0000 0000 0000 0000 0000 0000
00000250: 0000 0000 0000 0000 0000 0000 0000 0000
00000260: 0000 0000 0000 0000 0000 0000 0000 0000
00000270: 0000 0000 0000 0000 0000 0000 0000 0000
00000280: 0000 0000 0000 0000 0000 0000 0000 0000
00000290: 0000 0000 0000 0000 0000 0000 0000 0000
000002a0: 0000 0000 0000 0000 0000 0000 0000 0000
000002b0: 0000 0000 0000 0000 0000 0000 0000 0000
000002c0: 0000 0000 0000 0000 0000 0000 0000 0000
000002d0: 0000 0000 0000 0000 0000 0000 0000 0000
000002e0: 0000 0000 0000 0000 0000 0000 0000 0000
000002f0: 0000 0000 0000 0000 0000 0000 0000 0000
00000300: 2eed 563c 5a04 8c3b cc82 0339 32f4 993a
00000310: 6627 d037 b1c2 113c f731 d53b c2d0 883a
00000320: bfb6 a73b 0000 0000 0000 0000 beb4 253b
00000330: 0000 0000 0000 0000 0000 0000 541f 80b9
00000340: 3385 d93b 5c53 0c3b 4dca 0f3c 5af1 2039
00000350: 0c24 2c39 9c8c 0b3c 3bec 603a 4739 5e3b
00000360: bfb4 14ba 0000 0000 8c87 e73a e550 ac3b
00000370: 9f5f 113b 906b 853a 0000 0000 0000 0000
00000380: 8bb4 b03a cc85 ad3a 0000 0000 d6fd 003c
00000390: 1e3f dcb9 0000 0000 0000 0000 23a3 273c
000003a0: 0000 0000 3f09 bf3a 71d1 bc3a 0a24 38ba
000003b0: 34dc 023a 4ad4 fe39 39b0 e53b 0000 0000
000003c0: c18d 313b 0000 0000 d75c 3c39 0000 0000
000003d0: 0000 0000 0000 0000 0000 0000 903a 073c
000003e0: 0000 0000 0000 0000 0000 0000 0000 0000
000003f0: 0000 0000 0000 0000 0000 0000 0000 0000
0.024835879 0.0074491533 0.0006921705 0.0020225637 0.0011069766 0.017344687 0.012441673 0.0022047814
0.009587123 0.0 0.0 0.004263369 0.0 0.0 0.0 -0.0002567619
0.012725259 0.0037655297 0.016370527 0.0013151463 0.0014102483 0.015390277 0.0024801807 0.0064386115
-0.0005738371 0.0 0.0030610838 0.009518617 0.0047799135 0.0031042332 0.0 0.0
0.003438968 0.0035309598 0.0 0.014660979 0.00013212427 0.0 0.0 0.019301655
0.0 0.003127714 0.00305584 -0.00071337743 0.0012556151 0.0012917893 0.012834213 0.0
0.005494185 0.0 0.0008524955 0.0 0.0 0.0 0.0 0.015736314
0.0 0.0 0.0 0.0 0.0 0.0 0.0 0.0
0.016476007 0.0052077454 0.00032547457 0.0014571883 0.0003259234 0.011305449 0.00816877 0.0013482491
0.0063400036 0.0 0.0 0.0030547099 0.0 0.0 0.0 -0.0002582186
0.00834602 0.0026410348 0.010973066 0.0005390411 0.00057142583 0.01045728 0.0013157801 0.004230539
-0.0005930955 0.0 0.002200128 0.0064527467 0.0029714124 0.0016039531 0.0 0.0
0.0019793555 0.0019347743 0.0 0.009751258 -0.00028775996 0.0 0.0 0.0128541915
0.0 0.0018954711 0.0018627963 -0.00073575997 0.00078169134 0.0007099242 0.008641493 0.0
0.0034401664 0.0 0.00040863708 0.0 0.0 0.0 0.0 0.010343165
0.0 0.0 0.0 0.0 0.0 0.0 0.0 0.0
0.0 0.0 0.0 0.0 0.0 0.0 0.0 0.0
0.0 0.0 0.0 0.0 0.0 0.0 0.0 0.0
0.0 0.0 0.0 0.0 0.0 0.0 0.0 0.0
0.0 0.0 0.0 0.0 0.0 0.0 0.0 0.0
0.0 0.0 0.0 0.0 0.0 0.0 0.0 0.0
0.0 0.0 0.0 0.0 0.0 0.0 0.0 0.0
0.0 0.0 0.0 0.0 0.0 0.0 0.0 0.0
0.0 0.0 0.0 0.0 0.0 0.0 0.0 0.0
0.0131180715 0.0042729797 0.00012541859 0.001174575 2.4813879e-05 0.008896516 0.0065062004 0.0010438191
0.0051182206 0.0 0.0 0.0025284733 0.0 0.0 0.0 -0.00024437404
0.006638193 0.002141199 0.00877626 0.000153487 0.00016416627 0.008517411 0.0008580123 0.0033908652
-0.0005672685 0.0 0.0017664297 0.005258667 0.0022182239 0.0010179151 0.0 0.0
0.001348154 0.0013238727 0.0 0.007873019 -0.00042008696 0.0 0.0 0.010231766
0.0 0.0014574899 0.001440568 -0.0007024413 0.0004991919 0.00048604823 0.007009533 0.0
0.0027092549 0.0 0.00017963663 0.0 0.0 0.0 0.0 0.0082537085
0.0 0.0 0.0 0.0 0.0 0.0 0.0 0.0

exp_avg_sq f4 [64, 64]
00000000: 9b5e b93d 7e29 d53b 8e87 ce39 8e67 0a3a
00000010: 5990 a53a 10c7 473d 77f1 c53c 04be 933a
00000020: c72b 683c 0000 0000 0000 0000 09c8 f93a
00000030: 0000 0000 0000 0000 0000 0000 4e64 6f37
00000040: 956d d23c cd32 043b 425f 183d 3f09 bc3a
00000050: f748 dc3a 6e7e 013d 3301 283b 4d47 e03b
00000060: 50b6 9639 0000 0000 efe8 a13a 35ff 453c
00000070: 293b 9e3b 9bfa 8e3b 0000 0000 0000 0000
00000080: c533 6a3b 7e91 973b 0000 0000 776e 013d
00000090: bb99 9a3a 0000 0000 0000 0000 bc96 5b3d
000000a0: 0000 0000 3e67 1b3b cb84 103b 4d42 e039
000000b0: da20 f939 ffc9 1f3a f990 bf3c 0000 0000
000000c0: 08eb d53b 0000 0000 abe2 193a 0000 0000
000000d0: 0000 0000 0000 0000 0000 0000 94b9 1d3d
000000e0: 0000 0000 0000 0000 0000 0000 0000 0000
000000f0: 0000 0000 0000 0000 0000 0000 0000 0000
00000100: f09f 953d b12e ad3b 1d36 a939 e207 e739
00000110: 27de 843a 0612 213d 6f71 9f3c e50d 6d3a
00000120: afc6 3a3c 0000 0000 0000 0000 5241 cc3a
00000130: 0000 0000 0000 0000 0000 0000 5ad1 3f37
00000140: 8283 a93c 1fc3 d73a ea48 f63c 2a0e 983a
00000150: 9608 b23a 2717 d13c 842e 073b 1474 b43b
00000160: affb 7339 0000 0000 aa26 873a adc6 1f3c
00000170: 9443 7f3b 5c1a 663b 0000 0000 0000 0000
00000180: 0af3 3c3b a3c4 733b 0000 0000 c573 d03c
00000190: 9312 7a3a 0000 0000 0000 0000 1b65 313d
000001a0: 0000 0000 e067 f93a 9fe6 e73a 8587 b539
000001b0: ee19 cf39 707d 003a b177 9a3c 0000 0000
000001c0: 68a5 ab3b 0000 0000 d047 fe39 0000 0000
000001d0: 0000 0000 0000 0000 0000 0000 c510 fe3c
000001e0: 0000 0000 0000 0000 0000 0000 0000 0000
000001f0: 0000 0000 0000 0000 0000 0000 0000 0000
00000200: 0000 0000 0000 0000 0000 0000 0000 0000
00000210: 0000 0000 0000 0000 0000 0000 0000 0000
00000220: 0000 0000 0000 0000 0000 0000 0000 0000
00000230: 0000 0000 0000 0000 0000 0000 0000 0000
00000240: 0000 0000 0000 0000 0000 0000 0000 0000
00000250: 0000 0000 0000 0000 0000 0000 0000 0000
00000260: 0000 0000 0000 0000 0000 0000 0000 0000
00000270: 0000 0000 0000 0000 0000 0000 0000 0000
00000280: 0000 0000 0000 0000 0000 0000 0000 0000
00000290: 0000 0000 0000 0000 0000 0000 0000 0000
000002a0: 0000 0000 0000 0000 0000 0000 0000 0000
000002b0: 0000 0000 0000 0000 0000 0000 0000 0000
000002c0: 0000 0000 0000 0000 0000 0000 0000 0000
000002d0: 0000 0000 0000 0000 0000 0000 0000 0000
000002e0: 0000 0000 0000 0000 0000 0000 0000 0000
000002f0: 0000 0000 0000 0000 0000 0000 0000 0000
00000300: e6c8 773d 065e 8e3b 4a98 8939 db59 b939
00000310: a912 5f3a d297 053d 6368 843c 2844 463a
00000320: 8170 1b3c 0000 0000 0000 0000 afaa a63a
00000330: 0000 0000 0000 0000 0000 0000 6d44 1c37
00000340: 29c8 8c3c 0518 b13a bc99 cb3c b687 7a3a
00000350: c5d0 923a 302b ad3c 101c e13a 9b41 963b
00000360: a215 4639 0000 0000 8fdc 583a 705e 043c
00000370: c1a1 533b ab94 3f3b 0000 0000 0000 0000
00000380: ac8b 1c3b b632 4b3b 0000 0000 7d30 ad3c
00000390: 8747 4d3a 0000 0000 0000 0000 21bb 123d
000003a0: 0000 0000 828d d03a b0f8 c13a a55e 9339
000003b0: cc18 a739 682c d639 9a2e 803c 0000 0000
000003c0: 8d98 8f3b 0000 0000 bff9 cd39 0000 0000
000003d0: 0000 0000 0000 0000 0000 0000 ef05 d33c
000003e0: 0000 0000 0000 0000 0000 0000 0000 0000
000003f0: 0000 0000 0000 0000 0000 0000 0000 0000
0.09051248 0.0065051904 0.00039392378 0.0005279713 0.001263152 0.048773825 0.024162991 0.0011271839
0.014170594 0.0 0.0 0.0019056808 0.0 0.0 0.0 1.4268864e-05
0.025687018 0.0020171881 0.03720022 0.0014346017 0.0016806413 0.031614713 0.002563548 0.006844437
0.00028746063 0.0 0.0012352745 0.012084772 0.00482883 0.0043633706 0.0 0.0
0.0035736423 0.0046254983 0.0 0.031599488 0.0011795083 0.0 0.0 0.05361055
0.0 0.002371266 0.0022051807 0.00042774007 0.00047517457 0.00060954684 0.023384558 0.0
0.006528262 0.0 0.0005870263 0.0 0.0 0.0 0.0 0.03850706
0.0 0.0 0.0 0.0 0.0 0.0 0.0 0.0
0.07305896 0.005285107 0.0003227451 0.00044065627 0.0010137007 0.03932383 0.019463269 0.0009042903
0.011399909 0.0 0.0 0.0015583432 0.0 0.0 0.0 1.1433231e-05
0.02069259 0.0016461349 0.030064065 0.0011600901 0.0013582881 0.025523735 0.002062709 0.0055070017
0.00023268045 0.0 0.0010311205 0.009751958 0.0038950192 0.0035110926 0.0 0.0
0.0028831386 0.0037196062 0.0 0.025445828 0.0009539511 0.0 0.0 0.043309312
0.0 0.001902815 0.0017692632 0.0003462398 0.00039501436 0.0004901504 0.018855901 0.0
0.005238224 0.0 0.0004850016 0.0 0.0 0.0 0.0 0.031013856
0.0 0.0 0.0 0.0 0.0 0.0 0.0 0.0
0.0 0.0 0.0 0.0 0.0 0.0 0.0 0.0
0.0 0.0 0.0 0.0 0.0 0.0 0.0 0.0
0.0 0.0 0.0 0.0 0.0 0.0 0.0 0.0
0.0 0.0 0.0 0.0 0.0 0.0 0.0 0.0
0.0 0.0 0.0 0.0 0.0 0.0 0.0 0.0
0.0 0.0 0.0 0.0 0.0 0.0 0.0 0.0
0.0 0.0 0.0 0.0 0.0 0.0 0.0 0.0
0.0 0.0 0.0 0.0 0.0 0.0 0.0 0.0
0.060494326 0.0043447046 0.0002624414 0.00035352897 0.00085095555 0.03261549 0.016163057 0.00075632567
0.009487272 0.0 0.0 0.0012715663 0.0 0.0 0.0 9.314256e-06
0.017185288 0.0013511187 0.02485358 0.00095569657 0.0011201134 0.021138757 0.0017174501 0.0045854575
0.0001889081 0.0 0.0008272612 0.008079156 0.0032292458 0.00292329 0.0 0.0
0.0023886962 0.0031005568 0.0 0.021141285 0.0007830788 0.0 0.0 0.03582299
0.0 0.0015911313 0.0014798846 0.0002810854 0.00031871197 0.00040850346 0.015647221 0.0
0.004382199 0.0 0.00039286722 0.0 0.0 0.0 0.0 0.025759665
0.0 0.0 0.0 0.0 0.0 0.0 0.0 0.0

exp_avg f4 [64]
00000000: 33bd 5a3b db35 073b 0000 0000 2b1a c33a
00000010: 3245 843a 5f61 003b 0000 0000 0400 0000
00000020: 2801 473b d6dc ae3b 0400 0000 5c36 793a
00000030: 0000 0000 1292 a83b 0400 0000 0400 0000
00000040: 5e29 6f3b 0400 0000 0000 0000 0000 0000
00000050: f8dd 2f3b b2cc 9e3a 30f2 853b 0000 0000
00000060: 0400 0000 0400 0000 0000 0000 c44d 183b
00000070: 2cbb c13a 0400 0000 77fc 4c3b 0950 163b
00000080: 0000 0000 0400 0000 0000 0000 0400 0000
00000090: 5cb5 173b 0400 0000 0000 0000 4ec0 3a3b
000000a0: 0ffc bf3a b62c 8a3b 9293 3a3b e77f 513b
000000b0: bbf7 273b 4efc 1f3a 88bd d43a 42f2 453b
000000c0: 0000 0000 0400 0000 0000 0000 0000 0000
000000d0: 0000 0000 127f 7a3a 7a2a d33b 0400 0000
000000e0: a0e0 933a 0000 0000 0000 0000 0400 0000
000000f0: 429d fa3a 154a 683b 3e7b 0c3b 5113 703b
0.0033376932 0.0020631466 0.0 0.0014885118 0.0010091423 0.0019589288 0.0 6e-45
0.003036568 0.0053363843 6e-45 0.00095066964 0.0 0.005144366 6e-45 6e-45
0.0036493163 6e-45 0.0 0.0 0.0026835185 0.0012115447 0.004087709 0.0
6e-45 6e-45 0.0 0.0023239711 0.0014780513 6e-45 0.003127841 0.0022935888
0.0 6e-45 0.0 6e-45 0.002314887 6e-45 0.0 0.002849597
0.0014647263 0.0042167557 0.0028469306 0.0031967105 0.0025629837 0.0006102965 0.0016230801 0.0030204211
0.0 6e-45 0.0 0.0 0.0 0.0009555678 0.0064442726 6e-45
0.0011282153 0.0 0.0 6e-45 0.0019120353 0.0035444547 0.0021435763 0.0036632607
